…
    num_classes: 10
optimizer:
  name: adam
  params:
    lr: 0.001
    betas:
    - 0.9
    - 0.999
    eps: 1.0e-08
    weight_decay: 0
    amsgrad: false
lr_scheduler:
  name: multi_step
  params:
    milestones:
    - 0.5
    - 0.75
    gamma: 0.1

--------------------
Files already downloaded and verified
==========================================================================================
Layer (type:depth-idx)                   Output Shape              Param #
==========================================================================================
ResNet                                   [64, 10]                  --
├─Conv2d: 1-1                            [64, 64, 32, 32]          1,728
├─BatchNorm2d: 1-2                       [64, 64, 32, 32]          128
├─Sequential: 1-3                        [64, 64, 32, 32]          --
│    └─BasicBlock: 2-1                   [64, 64, 32, 32]          --
│    │    └─Conv2d: 3-1                  [64, 64, 32, 32]          36,864
│    │    └─BatchNorm2d: 3-2             [64, 64, 32, 32]          128
│    │    └─Conv2d: 3-3                  [64, 64, 32, 32]          36,864
│    │    └─BatchNorm2d: 3-4             [64, 64, 32, 32]          128
│    │    └─Sequential: 3-5              [64, 64, 32, 32]          --
│    └─BasicBlock: 2-2                   [64, 64, 32, 32]          --
│    │    └─Conv2d: 3-6                  [64, 64, 32, 32]          36,864
│    │    └─BatchNorm2d: 3-7             [64, 64, 32, 32]          128
│    │    └─Conv2d: 3-8                  [64, 64, 32, 32]          36,864
│    │    └─BatchNorm2d: 3-9             [64, 64, 32, 32]          128
│    │    └─Sequential: 3-10             [64, 64, 32, 32]          --
├─Sequential: 1-4                        [64, 128, 16, 16]         --
│    └─BasicBlock: 2-3                   [64, 128, 16, 16]         --
│    │    └─Conv2d: 3-11                 [64, 128, 16, 16]         73,728
│    │    └─BatchNorm2d: 3-12            [64, 128, 16, 16]         256
│    │    └─Conv2d: 3-13                 [64, 128, 16, 16]         147,456
│    │    └─BatchNorm2d: 3-14            [64, 128, 16, 16]         256
│    │    └─Sequential: 3-15             [64, 128, 16, 16]         8,448
│    └─BasicBlock: 2-4                   [64, 128, 16, 16]         --
│    │    └─Conv2d: 3-16                 [64, 128, 16, 16]         147,456
│    │    └─BatchNorm2d: 3-17            [64, 128, 16, 16]         256
│    │    └─Conv2d: 3-18                 [64, 128, 16, 16]         147,456
│    │    └─BatchNorm2d: 3-19            [64, 128, 16, 16]         256
│    │    └─Sequential: 3-20             [64, 128, 16, 16]         --
├─Sequential: 1-5                        [64, 256, 8, 8]           --
│    └─BasicBlock: 2-5                   [64, 256, 8, 8]           --
│    │    └─Conv2d: 3-21                 [64, 256, 8, 8]           294,912
│    │    └─BatchNorm2d: 3-22            [64, 256, 8, 8]           512
│    │    └─Conv2d: 3-23                 [64, 256, 8, 8]           589,824
│    │    └─BatchNorm2d: 3-24            [64, 256, 8, 8]           512
│    │    └─Sequential: 3-25             [64, 256, 8, 8]           33,280
│    └─BasicBlock: 2-6                   [64, 256, 8, 8]           --
│    │    └─Conv2d: 3-26                 [64, 256, 8, 8]           589,824
│    │    └─BatchNorm2d: 3-27            [64, 256, 8, 8]           512
│    │    └─Conv2d: 3-28                 [64, 256, 8, 8]           589,824
│    │    └─BatchNorm2d: 3-29            [64, 256, 8, 8]           512
│    │    └─Sequential: 3-30             [64, 256, 8, 8]           --
├─Sequential: 1-6                        [64, 512, 4, 4]           --
│    └─BasicBlock: 2-7                   [64, 512, 4, 4]           --
│    │    └─Conv2d: 3-31                 [64, 512, 4, 4]           1,179,648
│    │    └─BatchNorm2d: 3-32            [64, 512, 4, 4]           1,024
│    │    └─Conv2d: 3-33                 [64, 512, 4, 4]           2,359,296
│    │    └─BatchNorm2d: 3-34            [64, 512, 4, 4]           1,024
│    │    └─Sequential: 3-35             [64, 512, 4, 4]           132,096
│    └─BasicBlock: 2-8                   [64, 512, 4, 4]           --
│    │    └─Conv2d: 3-36                 [64, 512, 4, 4]           2,359,296
│    │    └─BatchNorm2d: 3-37            [64, 512, 4, 4]           1,024
│    │    └─Conv2d: 3-38                 [64, 512, 4, 4]           2,359,296
│    │    └─BatchNorm2d: 3-39            [64, 512, 4, 4]           1,024
│    │    └─Sequential: 3-40             [64, 512, 4, 4]           --
├─Linear: 1-7                            [64, 10]                  5,130
==========================================================================================
Total params: 11,173,962
Trainable params: 11,173,962
Non-trainable params: 0
Total mult-adds (Units.GIGABYTES): 35.55
==========================================================================================
Input size (MB): 0.79
Forward/backward pass size (MB): 629.15
Params size (MB): 44.70
Estimated Total Size (MB): 674.63
…
    num_classes: 10
optimizer:
  name: adam
  params:
    lr: 0.001
    betas:
    - 0.9
    - 0.999
    eps: 1.0e-08
    weight_decay: 0
    amsgrad: false
lr_scheduler:
  name: multi_step
  params:
    milestones:
    - 0.5
    - 0.75
    gamma: 0.1

--------------------
Files already downloaded and verified
==========================================================================================
Layer (type:depth-idx)                   Output Shape              Param #
==========================================================================================
ResNet                                   [256, 10]                 --
├─Conv2d: 1-1                            [256, 64, 32, 32]         1,728
├─BatchNorm2d: 1-2                       [256, 64, 32, 32]         128
├─Sequential: 1-3                        [256, 64, 32, 32]         --
│    └─BasicBlock: 2-1                   [256, 64, 32, 32]         --
│    │    └─Conv2d: 3-1                  [256, 64, 32, 32]         36,864
│    │    └─BatchNorm2d: 3-2             [256, 64, 32, 32]         128
│    │    └─Conv2d: 3-3                  [256, 64, 32, 32]         36,864
│    │    └─BatchNorm2d: 3-4             [256, 64, 32, 32]         128
│    │    └─Sequential: 3-5              [256, 64, 32, 32]         --
│    └─BasicBlock: 2-2                   [256, 64, 32, 32]         --
│    │    └─Conv2d: 3-6                  [256, 64, 32, 32]         36,864
│    │    └─BatchNorm2d: 3-7             [256, 64, 32, 32]         128
│    │    └─Conv2d: 3-8                  [256, 64, 32, 32]         36,864
│    │    └─BatchNorm2d: 3-9             [256, 64, 32, 32]         128
│    │    └─Sequential: 3-10             [256, 64, 32, 32]         --
├─Sequential: 1-4                        [256, 128, 16, 16]        --
│    └─BasicBlock: 2-3                   [256, 128, 16, 16]        --
│    │    └─Conv2d: 3-11                 [256, 128, 16, 16]        73,728
│    │    └─BatchNorm2d: 3-12            [256, 128, 16, 16]        256
│    │    └─Conv2d: 3-13                 [256, 128, 16, 16]        147,456
│    │    └─BatchNorm2d: 3-14            [256, 128, 16, 16]        256
│    │    └─Sequential: 3-15             [256, 128, 16, 16]        8,448
│    └─BasicBlock: 2-4                   [256, 128, 16, 16]        --
│    │    └─Conv2d: 3-16                 [256, 128, 16, 16]        147,456
│    │    └─BatchNorm2d: 3-17            [256, 128, 16, 16]        256
│    │    └─Conv2d: 3-18                 [256, 128, 16, 16]        147,456
│    │    └─BatchNorm2d: 3-19            [256, 128, 16, 16]        256
│    │    └─Sequential: 3-20             [256, 128, 16, 16]        --
├─Sequential: 1-5                        [256, 256, 8, 8]          --
│    └─BasicBlock: 2-5                   [256, 256, 8, 8]          --
│    │    └─Conv2d: 3-21                 [256, 256, 8, 8]          294,912
│    │    └─BatchNorm2d: 3-22            [256, 256, 8, 8]          512
│    │    └─Conv2d: 3-23                 [256, 256, 8, 8]          589,824
│    │    └─BatchNorm2d: 3-24            [256, 256, 8, 8]          512
│    │    └─Sequential: 3-25             [256, 256, 8, 8]          33,280
│    └─BasicBlock: 2-6                   [256, 256, 8, 8]          --
│    │    └─Conv2d: 3-26                 [256, 256, 8, 8]          589,824
│    │    └─BatchNorm2d: 3-27            [256, 256, 8, 8]          512
│    │    └─Conv2d: 3-28                 [256, 256, 8, 8]          589,824
│    │    └─BatchNorm2d: 3-29            [256, 256, 8, 8]          512
│    │    └─Sequential: 3-30             [256, 256, 8, 8]          --
├─Sequential: 1-6                        [256, 512, 4, 4]          --
│    └─BasicBlock: 2-7                   [256, 512, 4, 4]          --
│    │    └─Conv2d: 3-31                 [256, 512, 4, 4]          1,179,648
│    │    └─BatchNorm2d: 3-32            [256, 512, 4, 4]          1,024
│    │    └─Conv2d: 3-33                 [256, 512, 4, 4]          2,359,296
│    │    └─BatchNorm2d: 3-34            [256, 512, 4, 4]          1,024
│    │    └─Sequential: 3-35             [256, 512, 4, 4]          132,096
│    └─BasicBlock: 2-8                   [256, 512, 4, 4]          --
│    │    └─Conv2d: 3-36                 [256, 512, 4, 4]          2,359,296
│    │    └─BatchNorm2d: 3-37            [256, 512, 4, 4]          1,024
│    │    └─Conv2d: 3-38                 [256, 512, 4, 4]          2,359,296
│    │    └─BatchNorm2d: 3-39            [256, 512, 4, 4]          1,024
│    │    └─Sequential: 3-40             [256, 512, 4, 4]          --
├─Linear: 1-7                            [256, 10]                 5,130
==========================================================================================
Total params: 11,173,962
Trainable params: 11,173,962
Non-trainable params: 0
Total mult-adds (Units.GIGABYTES): 142.19
==========================================================================================
Input size (MB): 3.15
Forward/backward pass size (MB): 2516.60
Params size (MB): 44.70
Estimated Total Size (MB): 2564.44
…
